pytorch_wgangp/models_weights/gen_logo_model_gray.pt (torch, 910613 bytes, 25 tensors)

latent_to_features.0.weight f4 [512, 100]
00000000: bd9c 2b3d 5d9b f43c d5b3 8d3d 3e2e d8bd
00000010: 727a fcbc 596f 733d 3fd1 663c 5b97 a4bc
00000020: 1605 98bd 9217 ea3d f1cf babd 9ecd 36bc
00000030: da7c 973d d204 cd3c d341 4ebd df4f b43d
00000040: 91aa fcbc 1ae6 13bd e508 f73d 4e64 23bd
00000050: 0fb0 ea3d f895 f9bb be40 a5bc d68d bbbd
00000060: 4e8f c3bd fd61 31bd 71f0 e5bd 12b9 91bd
00000070: ee7c 4b3d dc8f fd3c c207 6a3d 7891 92bd
00000080: 9d7c f63c 622b 473d 46af 453e f2b7 e1bd
00000090: 08c0 9a3d f9e1 10bd 300b 373d 59f0 c7bb
000000a0: 0c93 e53c 4acd de3d d337 f73c 1b15 a5bd
000000b0: 24de 9c3c 3a6a 913d 7aff ef3d 4c14 a93d
000000c0: 476e 9dbc ef4f f1bc f6a4 d23d 2800 39bd
000000d0: d807 823d 943b 973d 55ff d43d de07 c1bd
000000e0: 37ab c2bd b5bf e63c 1c07 123d 0a2e aabd
000000f0: 09ab a93d 56c6 153c bc80 4a3d ff2a 9dbd
00000100: 4750 bbbd 7c21 f1bd 4c97 8f3d faba e03c
00000110: 797c 113e 1731 853d e0d9 a33d a652 25bd
00000120: 576f 1dbe d9ca e63c d170 0e3d 39a4 b4bc
00000130: 9673 253d 50d1 143d 668b 9b3d 1cee d1bd
00000140: 82f0 1a3e 39c9 52bd 02a1 1cbd f0f7 963d
00000150: b70b b63d 4cb5 17bd b01e ec3d 825f 2cbd
00000160: 9367 a5bb 697e 46bd 9905 4dbc f024 523d
00000170: c7a7 b03d cd5c bbbc 0a39 a93d ff97 353d
00000180: 0f0f 023e 604c 2cbc 16f7 09bd 0676 1b3d
00000190: e27a 8d3c d72d 5b3d b2d2 f1bc 3acb b0ba
000001a0: 86fe b8bc 1e34 863d 98bd 09bc 62e5 113d
000001b0: 0d0f 9ebb 6bec 253a 903c ba3c e079 023d
000001c0: 68a9 a43b deee 4b3d 7407 f7bc 3c06 11bd
000001d0: 8815 853d 4371 273d fcc3 23bc 67ce 55bd
000001e0: 8c7a 6d3d 886b 1d3d 788b 4e3c 6150 a9bc
000001f0: 9cf2 653b 2012 d53c 29b6 2a3d a608 ce3c
00000200: 0d0a 87bd 6c9f a4bc 204c f43c a625 cbbb
00000210: 0541 04bc 668d 52bd 7f07 59bd 2136 763d
00000220: ffcd 1e3d f3b4 f93c 0a9e 233d f9eb 55bd
00000230: 552c 46bc cce9 203d cfe0 6b3c 0d99 89bc
00000240: ee4c 40bd 70db d33c aa4e 84bd d3ef 19bc
00000250: 70c1 c9bc eb42 24bd 5fcb 64bb 97e5 1fbc
00000260: fa54 e9bc 2e85 333d 399d 933b 959b 173d
00000270: 6e58 06bc d895 afbb aed4 d5bb 5e59 553c
00000280: a762 9e3c 6621 96bc 6942 6ebc 6ba6 68bc
00000290: 9863 fd3c 767a 85bc 6172 96bc dd36 a4bc
000002a0: b1a7 fe3c abb6 553c c291 20bd ea43 373d
000002b0: 48e7 76bd 0f88 353d c633 b1bc 0c8b 08bd
000002c0: 0263 2ebd 18e8 5a3d ce1b 673d c64f 8abc
000002d0: c1de 0c3d fdee 1f3d af25 e7bc a26a 2ebd
000002e0: 2aff 48bc 1ef6 803c 52b8 e03c 859b 9a3b
000002f0: 0f75 6abc 60ea 33b8 f252 423d 7504 1abd
00000300: 6876 363d 9f7c 3dbd 94c6 323b e000 933c
00000310: fccc 5ebc 02d9 183d f5d0 863d 84ab 6a3d
00000320: 1816 efbc 100e 96bb 1dd5 5cbd 9ce3 b63c
00000330: 03fd a63d 4c06 9d3d 3393 a4bd 22c3 783d
00000340: dfaa 903d 3257 a43d 6b73 a93c 6c49 77bd
00000350: 08a6 37bd 6cb5 753c b124 0dbd 1da2 2d3c
00000360: 0f6b 073e 378d 96bb 91a5 86bb 2032 b1bd
00000370: d104 173e 1ac4 59bc 25bd 143d 1dca 043d
00000380: 229b c2bd ef7c 34bb 9ae6 6e3d 56b7 a63b
00000390: 8bae 8dbd 2f15 25bd 35e7 a2bd 1ab1 4ebc
000003a0: 681e 9b3d 0bca 24bd 0d79 3b3d 3b5f 633d
000003b0: 03a2 d7bc 6118 7b3c 809c 363d adce f53d
000003c0: 67c2 113d 01c1 583d 4243 1abd b3f9 403d
000003d0: 6009 353d 23c5 b43d 1aa1 1f3d 619d 80bd
000003e0: 8b38 e2bc 1d91 ba3d 6d1d efbc ee7f 8b3d
000003f0: 4771 2abd 2ec8 c83d 4bc1 c23d 46c1 853b
0.041897524 0.02985924 0.06919066 -0.10555695 -0.030820105 0.05943236 0.014087974 -0.020091703
-0.07422845 0.11430277 -0.09121693 -0.011157421 0.073968604 0.025026713 -0.050355744 0.08804297
-0.030843051 -0.036108114 0.12062243 -0.03989058 0.11459362 -0.0076167546 -0.020172473 -0.091579124
-0.095488176 -0.04330634 -0.11227501 -0.071153775 0.04967969 0.030952387 0.057136305 -0.07156652
0.030088717 0.048625357 0.19305143 -0.11021413 0.07556158 -0.035371754 0.044688404 -0.0061016497
0.028024219 0.108789995 0.030177986 -0.08060666 0.019148894 0.07100339 0.1171865 0.082558244
-0.019217623 -0.02945706 0.1028537 -0.045166165 0.06349152 0.073844105 0.10400263 -0.09425329
-0.09505313 0.028167585 0.03565131 -0.083095625 0.082845755 0.009141525 0.049439177 -0.076742165
-0.09146171 -0.11773965 0.070112795 0.027432907 0.14207639 0.06503504 0.08000541 -0.040362023
-0.15374504 0.028172897 0.03477556 -0.022050964 0.040393434 0.03633243 0.075949475 -0.10250494
0.15130809 -0.051461432 -0.038239487 0.07371509 0.08888953 -0.037038133 0.11529291 -0.04208327
-0.0050477474 -0.048460398 -0.012513542 0.051304758 0.08625751 -0.0228714 0.082628325 0.044334408
0.12701057 -0.010516256 -0.033682905 0.037954353 0.01727051 0.053510513 -0.029519413 -0.0013488301
-0.022582304 0.06552909 -0.008407019 0.035619147 -0.0048235715 0.00063294795 0.022733957 0.03185451
0.0050250776 0.04978835 -0.030154921 -0.035406336 0.064982474 0.0408795 -0.009995457 -0.052198794
0.057978198 0.038432628 0.012606494 -0.02066821 0.0035087233 0.02600962 0.041677628 0.025150608
-0.06593714 -0.02009555 0.029821455 -0.0061995564 -0.0080721425 -0.05140438 -0.052985664 0.060110215
0.038770672 0.030481791 0.03994564 -0.052226994 -0.0120955305 0.039285466 0.01439686 -0.016796613
-0.046948366 0.025861472 -0.064603165 -0.009395557 -0.024628371 -0.04010288 -0.0034911258 -0.009759328
-0.028482903 0.043828182 0.0045048264 0.03701361 -0.008199794 -0.005358439 -0.0065255975 0.013021795
0.01933415 -0.018326472 -0.014542201 -0.014199833 0.030931279 -0.016293745 -0.018365087 -0.020045692
0.03108582 0.01304404 -0.039201505 0.044742502 -0.06027916 0.04431921 -0.021631133 -0.03333573
-0.04257489 0.053443998 0.056423 -0.016883742 0.034392122 0.039046276 -0.028216211 -0.04258216
-0.012267867 0.015742358 0.02743164 0.0047182464 -0.0143101355 -4.2895204e-05 0.047442384 -0.037601907
0.044546515 -0.046261426 0.0027279006 0.017944753 -0.013598677 0.03731633 0.06582824 0.057292476
-0.02918534 -0.004579313 -0.05391418 0.02232533 0.08153727 0.07667217 -0.080358885 0.06073297
0.07063841 0.08024444 0.020684918 -0.060372755 -0.044836074 0.014996868 -0.03445882 0.010597733
0.13224433 -0.004594471 -0.0041090925 -0.08652139 0.14747931 -0.013291383 0.036313195 0.032419313
-0.095022455 -0.0027540287 0.058325388 0.0050877733 -0.06918057 -0.040303405 -0.079542555 -0.0126154665
0.07574159 -0.040231746 0.04576974 0.05551074 -0.02632237 0.015325637 0.044582844 0.12002311
0.035585787 0.052918438 -0.0376618 0.04711313 0.044198394 0.08826663 0.038971998 -0.06280018
-0.027614852 0.091097094 -0.029188836 0.0681151 -0.041611936 0.09803806 0.09509524 0.004081878

latent_to_features.0.bias f4 [512]
00000000: 8280 c73d 331b 35be c07a 5f3e b7ad df3c
00000010: c633 4b3e b381 093c 30e5 78be 1ac5 da3d
00000020: fa75 c23d 3179 c5bd cac9 35be cfa8 373d
00000030: 02bf 513e 209d 82bd ce34 543d fe87 12be
00000040: f329 8c3d e2f1 65be af50 f5bd 8e87 8f3e
00000050: ea77 7f3e f14f 21ba b736 c9bd ca2e 4bbc
00000060: 6d21 0abd b253 393e 5fb5 9ebb fef4 023e
00000070: 2e6e 443e 3cfe 2dbe 4eea 603b 6934 3b3e
00000080: 685c 5fbe 3e82 bd3d 109d b53d 9d89 69bc
00000090: 57d7 20be 7915 db3b 48bb 0a3e bf52 fabc
000000a0: 24e4 8f3e d3c7 4bbd 8ed5 cdbd 1566 d4b9
000000b0: ce88 03be ff4c b43d 28af 3cbd 71c3 cc3d
000000c0: 9dd5 c93d 2c93 ff3d f4ca 203e 9847 c5bd
000000d0: d53d ab3d 49f9 b6bd 896d 81bd 0b25 5d3e
000000e0: 18ca f53d d769 86bd 5e64 a1bd ad6a 763e
000000f0: b723 163e 59e0 0a3e 1dd1 edbd 60b7 74bc
00000100: 5b07 8d3d ec7e 103e 77ad 35be d1e7 d1bc
00000110: a0fc 5ebc 3d3e 383e 7a15 24be 090a 27bd
00000120: 6499 46bd 6465 8cbd 9086 50bd b1ee 5ebc
00000130: 1b8b 3e3d aae5 663d 9a8e a9bd c419 f53d
00000140: c564 47bd d1fd 2b3d e2a5 b13d db93 bb3d
00000150: 39ae 68be 063d 58bd be6e 0ebe b262 b93e
00000160: b290 173e 6cb9 cdbd a7f9 393e bf8b 6bbe
00000170: 193f 24be 897a a73e 03f4 4cbe 5acb 2bbe
00000180: 4402 84bc f5a9 273e 07a7 073e f632 4ebe
00000190: c1f8 0cbe 610c d23d 61d1 443e 21e9 053d
000001a0: f959 f13d dd76 fa3c cc2f 33be d3ee 5e3c
000001b0: 691f 1d3d 7d51 163e 48cc 4d3d a164 3abe
000001c0: a0d6 673e 7596 9bbd 00d3 883d f05c 25be
000001d0: 0dc1 09be e5ff a23c e7df a83d b666 253e
000001e0: 8f11 84be 620b a2bc ca83 353e 3185 013e
000001f0: 644d 29be f9c5 343e 07aa 1fbe a069 de3d
00000200: 2773 d8bc d0cf 33be a8e8 553d c2da 5c3e
00000210: bc9e 513d 2151 21be 59d7 b93b f997 24bd
00000220: 19be b0bd 51af 72bd f392 3a3e 005d d3bd
00000230: dd78 25be bca9 f63d aa8b c5bc e6c0 733d
00000240: 95ab fc3d a1e5 64be 92ad f5bd 6b8d b93d
00000250: be22 d13d 449b 47bd e941 663e 5573 50be
00000260: d3a3 a93d 07b0 953e b78a 30be b984 24be
00000270: a24c 43be 77fa d23c 751d a03c d4a3 6b3e
00000280: 6e16 e9bd 4cee e0bc 7e9f 4d3d 05ab fa3d
00000290: 1cd9 40be a56d 233e 0bb2 78bd ca33 013e
000002a0: 7016 5ebe 86dd 883e c18e 0cbe 1a88 433d
000002b0: 8cb9 64be a4ed 033e c0c5 0f3e d1c4 133e
000002c0: fc0b 1fbe 33db 523e 3145 d6bd a5b0 253e
000002d0: 27cf 753e f38d 8cbc 4716 b73d f8e0 e5bd
000002e0: cb30 a9bd eaaf a1bd 8af7 b23d bc86 ed3d
000002f0: e85c 413e 5aa7 a6bd b854 cdbd b4c8 9e3d
00000300: 82a4 42be 20b2 203e 381c 953e 2bc2 8bbd
00000310: 1b78 f33c a1df 8c3d 9fa2 aa3d 3344 363d
00000320: 0890 05be 218f bc3d 673f 733d ed11 dfbd
00000330: 5d02 5fbe 05c3 4e3d 186e 3d3d 2f17 563e
00000340: 29e1 bfbc cfb7 d3bd a023 253e 727d abbc
00000350: a3d3 1e3d ed4e a03e 844d a5bd 2007 49be
00000360: dc21 13be 6638 be3d 2ac8 4e3e 6fd0 27bd
00000370: 141d 863e 8b00 21be ca18 1b3c 09f8 43be
00000380: a6fb 62be a838 7a3e 8df3 4cbe 5120 3c3e
00000390: f4ce 37be 60f5 073e e548 013e 8de1 d5bd
000003a0: be7a 393d 452f 7fbe 1459 5d3e e8bd 593d
000003b0: 30a7 25be b500 323e b852 0cbe 7455 053e
000003c0: 544f 47be 2332 233e 3e51 243d f035 243e
000003d0: 5eb7 6b3e aec3 ae3d c0aa 00bd 091f b0bd
000003e0: ecbf 2abe 1d13 053e 032b 353e c1ee c83c
000003f0: 4ab8 2bbe 3488 d2bd 8ef8 b5bd f62b 7f3e
0.09741308 -0.17686157 0.21824169 0.027304513 0.19843969 0.008392739 -0.24306178 0.106821254
0.094951585 -0.09642256 -0.17752758 0.044838723 0.2048302 -0.063776255 0.05180817 -0.1430969
0.06843939 -0.22455552 -0.1197828 0.28033108 0.24948087 -0.0006153575 -0.09824889 -0.012401292
-0.033723284 0.18098333 -0.0048433985 0.1278877 0.19182655 -0.16991514 0.0034319344 0.18281712
-0.21812594 0.09253357 0.08867848 -0.014254001 -0.15707146 0.0066859093 0.13548005 -0.030557035
0.28103745 -0.049751114 -0.10050498 -0.00040511848 -0.12845156 0.08803748 -0.04606548 0.09998215
0.098551966 0.12479243 0.1570242 -0.09632796 0.08361403 -0.08934266 -0.0631972 0.21596162
0.12001437 -0.06563156 -0.07880472 0.24064131 0.14662062 0.13562144 -0.11612151 -0.014936298
0.068861686 0.14110917 -0.17741953 -0.025623234 -0.013610035 0.17992492 -0.16023818 -0.040781055
-0.04848613 -0.06855276 -0.05090958 -0.013606713 0.04651938 0.05637137 -0.08279152 0.11967805
-0.048680086 0.041990105 0.08674218 0.091590606 -0.2272271 -0.05279257 -0.13909432 0.3620811
0.1480129 -0.10045132 0.18161641 -0.23002528 -0.16039695 0.32710674 -0.20014958 -0.16776791
-0.016114362 0.16373427 0.1324731 -0.20136628 -0.13766767 0.10256267 0.19220497 0.032693032
0.11784739 0.030574257 -0.17498702 0.013606745 0.038360033 0.14679523 0.050243646 -0.1820245
0.22640467 -0.07597057 0.0668087 -0.16148734 -0.1345255 0.01989741 0.08245831 0.16152462
-0.25794646 -0.019780818 0.17726055 0.12648465 -0.16533428 0.17653646 -0.15592204 0.1085999
-0.026422096 -0.17559743 0.05222383 0.21567824 0.05117677 -0.15753604 0.0056714234 -0.040183995
-0.08630008 -0.059249226 0.18220119 -0.10320473 -0.16159387 0.12044093 -0.024114449 0.059510134
0.12337414 -0.22353221 -0.119959965 0.090601765 0.10211705 -0.048732057 0.2248608 -0.20356496
0.082832 0.2923586 -0.17240416 -0.16066255 -0.19072202 0.025754197 0.019545296 0.23011714
-0.11381231 -0.027457379 0.05020093 0.12239651 -0.1883282 0.15959795 -0.06071667 0.12617412
-0.21688247 0.2673151 -0.13726331 0.04773722 -0.22336406 0.12883621 0.1404028 0.14430548
-0.15531915 0.2059143 -0.10462416 0.16180666 0.24004804 -0.01715753 0.08939796 -0.1122455
-0.0826126 -0.07894881 0.087386206 0.11597964 0.18883097 -0.081373885 -0.100259244 0.07753125
-0.19008067 0.1569295 0.29123092 -0.06824144 0.029720357 0.06878591 0.08331799 0.044498634
-0.13043225 0.09206987 0.059386637 -0.10892091 -0.21778245 0.050478954 0.04624757 0.20907281
-0.023422794 -0.10337793 0.16126871 -0.02093384 0.03877605 0.31310216 -0.080714256 -0.19631624
-0.14368385 0.09288101 0.20193544 -0.040970262 0.2619406 -0.15722863 0.009466359 -0.19137587
-0.22166309 0.24435675 -0.20014782 0.18371703 -0.1795004 0.13277197 0.12625463 -0.10443411
0.04528307 -0.24920376 0.21616012 0.053159624 -0.16177058 0.17383082 -0.1370343 0.13020879
-0.19463855 0.15937094 0.04011654 0.160362 0.23019168 0.08533417 -0.03141284 -0.085996695
-0.16674775 0.12995572 0.17692189 0.02452791 -0.1676952 -0.10279885 -0.08885299 0.24919114

features_to_image.0.weight f4 [128]
00000000: 57b2 873f 0400 9b3f 11dd 603f 6ad4 773f
00000010: 8d5a 713f 19d0 693f b88a 833f 3ff8 653f
00000020: dc8c 833f a711 703f 1101 7f3f d589 623f
00000030: 7b00 823f 8821 833f d4ae 873f 05a0 653f
00000040: 7fc3 7c3f 3155 883f b287 6d3f d56c 663f
00000050: b076 753f fa86 803f ea5f 883f 4914 8b3f
00000060: 05d2 913f 8efe 863f e3b9 803f cad0 7f3f
00000070: b8fb 813f ab60 7a3f 389c 833f 1d26 833f
00000080: 86b1 7b3f 55f8 763f 07d9 853f 1e56 673f
00000090: ae8c 713f b19f 803f 76c6 6a3f 585e 783f
000000a0: 40e6 843f e084 753f c8e3 833f dc9a 813f
000000b0: 7c6d 7d3f d91d 633f c305 8c3f c0ce 813f
000000c0: bd8f 713f 0dc8 6a3f 9cb4 6f3f bd8f 673f
000000d0: ab51 693f 343c 7c3f a489 753f 4a44 653f
000000e0: f649 8a3f 6bc9 743f 0add 733f c022 773f
000000f0: 8f34 833f 8922 7e3f a01a 833f 7bff 7f3f
00000100: b4e5 6b3f c19a 783f 5a2f 7d3f 5be0 7a3f
00000110: f899 743f 0fc0 773f 52c6 833f 9681 8b3f
00000120: 14ca 723f eca9 7c3f 8714 663f faab 833f
00000130: 6385 733f cd65 7d3f 3428 623f a8fa 703f
00000140: cfb0 7c3f 8d01 823f 9c8d 793f edbd 8a3f
00000150: 8c51 6f3f 522b 893f 0681 8a3f 1de6 7b3f
00000160: 3ac6 6c3f 619b 773f cd15 6d3f 41ba 8a3f
00000170: 7e39 8f3f 89d1 5f3f 0696 6a3f 0fc9 653f
00000180: eabc 8f3f 6a05 873f 0bed 823f 49ab 603f
00000190: 1e1c 603f 4fd1 873f 8565 5c3f 1d1f 653f
000001a0: c92f 813f c5ea 6a3f 8d84 723f 39fc 803f
000001b0: 3f30 723f 3205 6b3f 871e 743f 7356 793f
000001c0: 7f99 663f e1d2 6b3f d6a0 743f 55b1 753f
000001d0: f35a 823f b76f 633f 5c83 7e3f 8d16 873f
000001e0: 998f 6b3f dd66 743f a577 763f 2c6d 7b3f
000001f0: 7b16 843f e2f6 7e3f c85e 873f d1f9 713f
1.06013 1.210938 0.8783732 0.96808493 0.94278795 0.91333157 1.0276709 0.8983192
1.0277362 0.93776935 0.99611 0.88491565 1.0156397 1.0244608 1.0600228 0.89697295
0.98735803 1.0650998 0.9278518 0.90009815 0.9588423 1.0041192 1.0654271 1.0865566
1.1392218 1.0546434 1.0056728 0.9992796 1.0154943 0.97803754 1.0282049 1.0246006
0.98317754 0.96472675 1.0456856 0.9036578 0.94355285 1.0048734 0.9170908 0.9701896
1.0382767 0.95905876 1.0303888 1.0125384 0.98995185 0.8871742 1.0939258 1.014122
0.9435995 0.91711503 0.93634963 0.904537 0.9114024 0.9852936 0.9591315 0.89557326
1.0803821 0.9561984 0.95259154 0.965374 1.0250415 0.99271446 1.02425 0.9999921
0.92147374 0.97111136 0.9890038 0.9799859 0.9554744 0.96777433 1.0294898 1.0898921
0.94839597 0.9869678 0.8987507 1.0286858 0.95125407 0.9898346 0.88342595 0.9413247
0.9870729 1.0156723 0.97481704 1.0839211 0.93483806 1.0716345 1.0820625 0.98398
0.9248997 0.96721464 0.9261139 1.083809 1.118942 0.874291 0.9163517 0.89759916
1.1229527 1.0548527 1.022859 0.8776136 0.87542903 1.0610751 0.86092407 0.895006
1.0092708 0.9176448 0.94733506 1.0076972 0.9460487 0.918048 0.9535908 0.97397536
0.90077966 0.9211865 0.95557916 0.9597371 1.0184005 0.8884234 0.9941919 1.0553757
0.9201599 0.95469457 0.96276313 0.9821346 1.031936 0.99595463 1.05758 0.94521815

features_to_image.0.bias f4 [128]
00000000: 104c 6dbd 0b78 c4bd 006a 18be ed8e 0ebe
00000010: da52 00be 4d45 e7bc 65d5 0cbe fdd9 1fbe
00000020: 625b d0bd 5755 5a3d d8f2 98bd a413 37be
00000030: cba4 c0bd 6f29 f1bd 9b61 39be 63c4 2abe
00000040: fa0c a13d c682 17be c8a3 01be 5812 5abd
00000050: 83ef b03c 2691 16be 7434 9abd d28e 37be
00000060: 47a4 00be cf59 1dbe 3a8f 323b 3b33 c3bd
00000070: 35f5 b8bd 165a 31be c793 25be b7d2 3fbe
00000080: f2e8 033d a62b dcbd 5aa1 67be 9bfa a3bc
00000090: 05f7 21be b7f6 6dbd a4e7 7dbe 340f 4abe
000000a0: 2dca a8bc 314e 3cbe 2d37 2abd 553e 0fbe
000000b0: b001 32be c138 5dbe 6b75 cfbd e9ff 62be
000000c0: 1c8c 48bd 313e 2cbe d269 08be e3d2 0abe
000000d0: 71e8 d7bc fb37 4abe 37ec 28be 92bb fb3a
000000e0: e4d8 23be b478 bb3d 7b58 98bd 952c 16be
000000f0: 2284 d0bc 44b9 f1bd 58fd 98bd 09a5 cdbd
00000100: 0cb7 0cbe 85e1 003d cd8c d83d 25ff 22be
00000110: 98d0 06be 573e cbbd 8af4 b7bd 0734 2cbe
00000120: 2449 b7bd 982e 19be 9d23 31be cee1 44be
00000130: 23b3 8cbd 6aa1 46be e658 23be e765 f23c
00000140: cf56 98bc 4e24 18bd 12ac 07bd 45dd d8bc
00000150: 0bf0 62be cc38 c3bd 9a13 38be 2254 60be
00000160: 162b 32be 5f3e f5bc 1983 03bd b1fd babd
00000170: 0b56 06be c25a a3bd 5dd7 afbc 25b5 2abe
00000180: d71d 29be d3b5 68bd 97fb 84bd 8e53 ffbd
00000190: b1df 6bbe aff7 1cbe 22af 30be 9185 83bd
000001a0: 8265 92bd 2f67 febd ac0f 5abe 96cb 1cbe
000001b0: 90ab 6e3d 8ba0 52bd 3315 cebd 6845 08be
000001c0: b908 3fbe 4857 2dbe 52d5 a2bd 5160 94bd
000001d0: fcb3 92bd 21c1 1abe 4970 d5bd a8af 063d
000001e0: dad6 c53d 4e57 20be 5b70 13be 8c7f 863c
000001f0: 9a53 56bd 1384 99bd f5bf 16bd 61b2 29be
-0.057933867 -0.09593209 -0.14884186 -0.1392171 -0.12531605 -0.028231287 -0.13753279 -0.156105
-0.1017368 0.053304043 -0.07468194 -0.17878586 -0.09406432 -0.11775481 -0.1810364 -0.16676478
0.07863803 -0.1479598 -0.12660134 -0.05324015 0.021598583 -0.14703807 -0.07529536 -0.17925575
-0.12562667 -0.1536629 0.0027246014 -0.09531256 -0.090311445 -0.17319521 -0.16169654 -0.18732725
0.032204576 -0.10750513 -0.22620144 -0.020016959 -0.15816887 -0.058096614 -0.24795395 -0.19732362
-0.020604217 -0.18389203 -0.041556526 -0.13988622 -0.17383456 -0.21603681 -0.101298176 -0.22167934
-0.048961744 -0.16820599 -0.13321617 -0.1355701 -0.026355954 -0.19747917 -0.16496359 0.0019205681
-0.16000706 0.09153882 -0.07438751 -0.14665444 -0.02545363 -0.11802915 -0.074701965 -0.100412436
-0.13741702 0.031465072 0.105737306 -0.15917642 -0.1316551 -0.09924 -0.08982189 -0.16816722
-0.08949497 -0.1495918 -0.17298742 -0.19226763 -0.06870105 -0.19397512 -0.15951881 0.029589606
-0.018596081 -0.037143998 -0.033123083 -0.026472697 -0.22161882 -0.095323175 -0.17976227 -0.21907094
-0.17399248 -0.029936967 -0.032107446 -0.09130419 -0.1311876 -0.07976295 -0.021464998 -0.16670664
-0.16515289 -0.056814026 -0.064932995 -0.12467109 -0.2303455 -0.15328859 -0.17254308 -0.0642196
-0.07148267 -0.124220245 -0.21295041 -0.15312037 0.058269083 -0.051422637 -0.10062637 -0.13307726
-0.18655671 -0.16927826 -0.07950844 -0.072449334 -0.071632355 -0.15112735 -0.10421807 0.032882363
0.0966012 -0.15658304 -0.14398329 0.016418241 -0.052325822 -0.07495894 -0.03680416 -0.16571952

features_to_image.0.running_mean f4 [128]
00000000: 9752 823e 470c 693e 2b5e 653e 6753 723e
00000010: 24b5 6f3e 9b70 7f3e 2c5e 893e 0444 853e
00000020: 2468 563e c3a5 583e 4ec9 663e 39ca 6d3e
00000030: de73 8b3e 0c7e 7d3e f561 7f3e f039 783e
00000040: 8cd8 623e f6b4 523e 734a 573e 5808 7d3e
00000050: f8c0 813e e2a3 4e3e dcef 563e 6df4 353e
00000060: a5ac 6a3e 56ba 7f3e 4215 633e 4385 633e
00000070: a61d 653e 3b37 823e 04e0 603e 969f 583e
00000080: 8625 6a3e d7f9 593e 8b3e 663e ae2f 6f3e
00000090: e67a 523e 251d 623e 4484 723e b042 663e
000000a0: 6645 753e d1d0 7c3e a358 6c3e 610f 773e
000000b0: 108f 653e f16a 823e fd99 693e 1116 733e
000000c0: b30e 7b3e 3c59 853e 03ab 5d3e 4882 733e
000000d0: 42c3 6f3e 779b 643e 6e91 7a3e 7083 5a3e
000000e0: cc9c 5a3e 7ae6 623e 3803 753e 5216 663e
000000f0: 8878 7a3e d2a9 813e 70c9 7a3e 6ff2 4d3e
00000100: 31ed 563e 3240 483e 692e 5d3e 04c6 5f3e
00000110: 28e6 733e 03f9 773e d6da 773e 026a 643e
00000120: 410d 733e 935b 783e af91 703e efb4 643e
00000130: fbe2 7e3e 48c6 5e3e 095c 4e3e bf23 8e3e
00000140: 52aa 893e 40d8 653e 229d 723e 6a22 2d3e
00000150: e582 773e a1e4 6a3e f271 613e 9eb4 7b3e
00000160: 2846 773e befe 6b3e a5e0 623e cc59 5f3e
00000170: aeb1 593e 308f 803e 4e12 843e 371b 4c3e
00000180: 587b 4f3e d97d 683e 904c 873e d63a 5b3e
00000190: 8020 763e f51e 5b3e e0d7 7f3e 38ce 833e
000001a0: 1b5b 5f3e 98e3 573e 2cce 743e 46ca 453e
000001b0: fa50 833e 12a2 4e3e f532 653e a938 5a3e
000001c0: 9f6d 5c3e 7faf 6c3e 054b 723e c082 5e3e
000001d0: e018 6d3e f0bb 713e 84b4 703e a1bf 5f3e
000001e0: 3fe5 6c3e ac84 683e c2b8 5a3e f3e2 543e
000001f0: a519 713e 209f 6c3e 3b54 603e cc33 6e3e
0.25453636 0.2275859 0.22399203 0.23664628 0.23408943 0.249453 0.2682966 0.26028454
0.20938164 0.21156983 0.22537729 0.23221673 0.27236837 0.24755114 0.24939711 0.24240851
0.22152919 0.20576844 0.21024494 0.24710214 0.25342536 0.20179704 0.20989937 0.17769022
0.22917421 0.24973425 0.22176078 0.22218804 0.22374591 0.25432763 0.21960455 0.21154627
0.22865877 0.21286713 0.22484796 0.23358032 0.20554695 0.2208143 0.23683268 0.22486377
0.23952255 0.24689032 0.23080687 0.2412696 0.22417855 0.25472215 0.22812648 0.23738886
0.24517326 0.26044643 0.21647267 0.23780167 0.23414329 0.2232493 0.2446954 0.21339202
0.21348876 0.22158232 0.23927009 0.22469452 0.24460042 0.25324875 0.24490905 0.20112012
0.20988919 0.19555739 0.21599735 0.2185288 0.23818266 0.24216084 0.24204573 0.22306064
0.23735525 0.24253683 0.23493074 0.22334646 0.24891274 0.21755326 0.20152296 0.27761647
0.26887757 0.22445774 0.23692754 0.16907659 0.24171026 0.22938778 0.22016123 0.24580619
0.24147856 0.23046395 0.22156008 0.21811599 0.21259186 0.25109243 0.25795215 0.19932257
0.20261896 0.22704257 0.264256 0.21409163 0.24035835 0.21398528 0.24984694 0.2574327
0.21812098 0.21082914 0.23906773 0.19315442 0.25647718 0.20179012 0.2238272 0.21310677
0.21526192 0.23113821 0.2366143 0.21729565 0.2315402 0.23606849 0.23506361 0.21850444
0.23134325 0.2270686 0.21359542 0.207897 0.23544939 0.23107576 0.21907131 0.23261946

features_to_image.0.running_var f4 [128]
00000000: 64d5 123e 710f 103e 23ec fe3d afb6 053e
00000010: a5bb 133e 7488 033e 96b9 0f3e a8d3 143e
00000020: f457 ed3d a146 ea3d 2668 fb3d 604b 023e
00000030: bc79 0e3e c481 0e3e 1164 0a3e faf9 ea3d
00000040: 051c f43d 9d77 f33d 43b3 d63d 7031 053e
00000050: b74b 023e faed 003e fd95 073e 75f8 fb3d
00000060: 44e6 083e 8b75 093e 617d f73d 45e9 f33d
00000070: 2380 003e 87fe 0c3e a6b4 fb3d cbca e53d
00000080: d886 003e 93f7 eb3d 8d5d fa3d 9bce 033e
00000090: 874b f43d 1fba fa3d 3eaf 1f3e 8bce f23d
000000a0: e6e3 013e 6d4a 0e3e de1d 163e 75cb 033e
000000b0: 308b 013e 40ea 093e 07bf f33d 2a89 073e
000000c0: 178f 0f3e c060 003e 1f7b ed3d 3827 0b3e
000000d0: cbf3 fc3d 2b3e 083e e4dc 053e 4b68 083e
000000e0: 4557 083e 2178 093e b691 0e3e e25b 013e
000000f0: 7469 173e f9f4 083e 5bd7 0a3e fda0 e23d
00000100: 90fb f63d 5bf5 e53d 9544 fd3d 6836 023e
00000110: fd0f 003e 6aae 133e 7ce8 f43d b84d e93d
00000120: e67d 083e 016c 053e 0945 073e f39b 0c3e
00000130: 171e ef3d 8af5 f53d ba3b dd3d 8f40 1e3e
00000140: 8382 073e 2321 0d3e c22a 113e a33b dd3d
00000150: 518e 0f3e 7707 f13d 5aad 093e b910 063e
00000160: 66b7 0a3e e1eb 003e cb86 e93d 66c5 173e
00000170: 990b fb3d 73f2 013e 51ee 013e 34e2 f53d
00000180: ab6d f03d 2f68 fb3d ada7 0d3e e1e2 003e
00000190: 555e 1a3e 58cb f13d 7f34 0b3e c7ea 163e
000001a0: 5e67 053e 14fd ed3d a0fd 0c3e 38bd dd3d
000001b0: 2638 063e 5bac ea3d 936d 083e 3aab f73d
000001c0: 1ca4 f13d 86ef 073e df81 063e 6ede ea3d
000001d0: 4da8 013e 4791 033e 0425 023e d49e 063e
000001e0: 4d58 e53d 914e 133e c348 093e 7119 ef3d
000001f0: 2187 023e b9ba f33d 1fe0 0a3e 5519 003e
0.14339215 0.1406839 0.12447383 0.1305797 0.1442705 0.12845021 0.14035639 0.14533865
0.11589041 0.11439253 0.12275724 0.12724066 0.13913625 0.13916689 0.13514735 0.114734605
0.11919407 0.11888049 0.1048341 0.1300714 0.12724195 0.12590781 0.1324081 0.12303249
0.1336909 0.13423745 0.12084461 0.11909727 0.1254888 0.1376897 0.12290315 0.1122032
0.12551439 0.115218304 0.12224875 0.12871782 0.11928468 0.12242531 0.15594193 0.11855801
0.12684593 0.13895579 0.14659831 0.12870581 0.12650752 0.13468266 0.1190167 0.13235918
0.14019428 0.12536907 0.11595749 0.1358918 0.12351187 0.13304965 0.13072544 0.13321035
0.1331454 0.13424732 0.13922772 0.12632707 0.14786321 0.133747 0.13558714 0.11065862
0.120597005 0.112284385 0.123665966 0.12716067 0.12506099 0.14422002 0.119584054 0.11391777
0.13329276 0.13029481 0.13209929 0.13731365 0.11675661 0.120097235 0.108024076 0.15454315
0.1323338 0.13782172 0.14176467 0.108023904 0.14019133 0.11769002 0.13445035 0.13092317
0.13546523 0.1258998 0.11402663 0.14821395 0.122580715 0.12690143 0.12688567 0.120060354
0.117396675 0.12275731 0.13833494 0.12586547 0.15075047 0.11806363 0.13594244 0.14737998
0.13027713 0.116205364 0.13768625 0.10827106 0.13107356 0.114586554 0.13323049 0.12093206
0.117988795 0.13274965 0.1313548 0.11468206 0.12661858 0.12848388 0.12709433 0.13146526
0.11198483 0.1438544 0.13406663 0.116747744 0.1274686 0.11900849 0.13562058 0.12509663

features_to_image.1.weight f4 [128, 64, 4, 4]
00000000: 5004 eabc 4bee a93a 1d1d d8b9 d5a0 d83c
00000010: 714c 30bd f925 383c 80d1 7a3a 6f91 a43a
00000020: 0fc2 30bd 30a0 093c 2ae0 963c 0d92 0a3d
00000030: 5d1f 14bc bdc4 3b3c 1e17 f73b e264 bb3c
00000040: 67c3 203d 5672 cf3c 423d 343c ffc6 37bc
00000050: 977f e93b 5508 343b 745c 08bc 020e 13bb
00000060: cfcb 1cbd 4e7b ebbc e4b4 3dbd 0910 d0bb
00000070: 7a19 cf3c 3df2 b53b 9592 ff3a fb10 59bc
00000080: 3cd6 933b 783c 8bbc 7267 d7bc c95b 5a3c
00000090: 720c cc3c c697 a83c 95db 08bb 0a76 abbb
000000a0: f6fc 5d3d c7ea 6bbc 08a2 133c 7de7 583c
000000b0: 42af 41bc f312 b0bc 47d9 16bd 3b33 ec3b
000000c0: bd11 9d3b a188 cdbc f8da 61bd ffee 82bc
000000d0: b23e 29bc 0137 443c 2457 eabc 10af 8bbb
000000e0: 3dd7 aa3b bc4c 1bba b240 493b e7f7 7cbc
000000f0: 8b2d 8d3c 92d3 f93b 3931 46bc 04d7 153c
00000100: e59b 813d 1359 de3c 2b51 dabc 3e55 ccbc
00000110: a904 09bc 8902 16bd 9fb5 b6bc 69fb 20bc
00000120: b6be adbc 9a0a d8bb 24d7 f9bc 7ca0 1bbc
00000130: 978e 62bd c5a4 ffbb 1ad7 92bc 842f d2bb
00000140: b126 613d 1ddc ab3c a850 13bc 3dfc c83b
00000150: db70 203c e806 4fbb d943 40bc b17e 36bd
00000160: 2546 08ba fdaf c23b 6e1b 84ba ed57 93bc
00000170: 58dd d83c 73d5 de3a 1425 383c 2cf2 b73b
00000180: 7564 6b3d 8f05 b43c 7212 f3bc b124 5f3b
00000190: c6a3 7cbb c3c8 55ba 1b2f 23bc 8664 21bb
000001a0: d2f7 08bb a587 cabc cc7f bdbb 3fee faba
000001b0: c321 153b f0cb 2abb 1216 5e3c c9c6 c6bb
000001c0: ebc1 263d f6e4 a33c 8915 d7bc 4bc4 1d3b
000001d0: f81a 973d 28ac 953c b889 1a3c af4e 00bc
000001e0: a1d4 2abc 6a7c 773c fdf5 56bc 1c43 bdbb
000001f0: 1a25 2bbb af45 a03c addc 2bbd 78a0 9fbc
00000200: 5cb6 ebbc 9bbf 17bd 3551 2fbd 1cd7 593c
00000210: 50f5 87bd 7594 723d d587 14bc e0b3 1e3c
00000220: 6d2d 413d aa83 ab3b f930 5d3c cc1a 11bc
00000230: 5936 003d 0bec 213d ea5b 323c 3a3c b1bc
00000240: e593 d63c f6a5 ad3c 980c 26bb c3e7 45bd
00000250: faa0 11bc 58e2 63bc 9269 60bd 54c1 6fbc
00000260: af13 10bc 753d b53c 2f85 c0ba bc8c 97bc
00000270: 161b ff3b c939 0bbd 4498 4abc d8be 19bd
00000280: 559c 833b 8417 c03c 156d b1bc ed4c b6bc
00000290: bed1 07bc ca6c 033d 580c ac3c ed74 393c
000002a0: a487 573c 25af 7a3c aa4f b9bc 26bc bbbc
000002b0: 34d0 f9bc c7cc a63c f33a f23c 135a cf38
000002c0: f346 d03c ea18 0b3d d59b 32bc a55d 86bc
000002d0: 343d 4d3d 117e c73b ffc2 9739 cf6c cfbc
000002e0: 3983 2b3a 1db9 23bc 27c1 69bc 8cac bd3c
000002f0: 3cb2 14bc 8a01 15bc a461 873b ed3d e0bc
00000300: e6cd bb3c 5aff 543b 9303 a83b ef64 09bc
00000310: 0ad1 153d a7e4 58bb a737 17bc 6083 8aba
00000320: a028 a2bd 1548 33bc f4c7 ac3b 18ed 0d3c
00000330: 8d1e d7bc e416 ae3c f720 51bc aaa3 03bc
00000340: 9f35 84bd b93b f03c c3be d03c ac1e 61bc
00000350: f3a7 c3bc 69c9 2c3c 0bc5 c3bb 8b79 58bc
00000360: d404 02bd 326f c7bc 3a29 16bc d0c3 34bd
00000370: e689 b03c ce79 74bc 3161 993c 2a03 92bc
00000380: 0149 0bbd 3678 943c 3b62 6e3d 539a aabc
00000390: de64 3f3d ab91 893c dd29 16bd fddc b6bb
000003a0: c812 0bbc c393 c8bc e9f0 f93c 847f 213c
000003b0: c678 c5ba 6122 433d 1a77 d8bb 7b47 77bb
000003c0: 625a 683d 0a99 97bc 4859 033c 6b4b 3a3b
000003d0: eb80 bebb 5bb7 98bc b9fa e5bb d817 44bb
000003e0: af9c 00ba 0059 a13c 45f2 34bd b4dd f3bc
000003f0: e72e adbc 5bae cf3c 296c 9cbc 78e1 923b
-0.02856651 0.0012964694 -0.00041220422 0.026443878 -0.04304165 0.011239522 0.0009567961 0.001255555
-0.04315382 0.008400008 0.018417437 0.03383069 -0.009040681 0.01146048 0.0075405976 0.022875253
0.03924885 0.025323074 0.011000933 -0.011216878 0.0071258056 0.0027470787 -0.008322824 -0.002243877
-0.038280305 -0.02874532 -0.04631509 -0.006349568 0.025280703 0.0055525587 0.0019498641 -0.013248677
0.0045116227 -0.016996607 -0.026294444 0.013327547 0.024908278 0.020580184 -0.0020882834 -0.005232577
0.05419632 -0.014399237 0.009010799 0.013238785 -0.01182157 -0.02149341 -0.036828306 0.0072082556
0.0047933743 -0.025089564 -0.055140465 -0.015983103 -0.010329889 0.011976005 -0.028606005 -0.0042628124
0.0052136467 -0.0005924215 0.0030708727 -0.015439964 0.01723363 0.007624098 -0.0120966965 0.009145502
0.06328563 0.027142083 -0.026650032 -0.02494299 -0.0083629275 -0.03662351 -0.0223034 -0.009825566
-0.021209102 -0.0065930607 -0.030498095 -0.009498712 -0.055311766 -0.0078016245 -0.017924834 -0.0064143557
0.05496854 0.020978982 -0.008991398 0.006133585 0.009792532 -0.003158981 -0.011734926 -0.044554416
-0.00051984406 0.0059413896 -0.0010078975 -0.017986262 0.026472732 0.0017000869 0.011239309 0.005613586
0.05746885 0.021975307 -0.029671881 0.003404897 -0.0038549765 -0.0008155221 -0.009959961 -0.0024626567
-0.0020899666 -0.024722883 -0.005783057 -0.0019144489 0.002275572 -0.0026061498 0.013555067 -0.0060661775
0.04071228 0.020006638 -0.026255386 0.0024073299 0.07378191 0.018270567 0.009432249 -0.00783126
-0.010426671 0.015105346 -0.013120172 -0.0057758223 -0.0026114644 0.019564478 -0.0419585 -0.019485697
-0.02877348 -0.037047964 -0.042802054 0.013295915 -0.066385865 0.05922361 -0.009065588 0.00968644
0.047162462 0.0052342014 0.0135004455 -0.0088564865 0.03130183 0.03953175 0.010886172 -0.021635164
0.026193568 0.0211973 -0.0025337096 -0.04831673 -0.008888477 -0.013908945 -0.05478818 -0.014633495
-0.008793755 0.022124032 -0.0014688129 -0.018499725 0.0077852113 -0.033990655 -0.0123654045 -0.03753552
0.004016439 0.023448713 -0.02165846 -0.022253478 -0.0082897525 0.03208617 0.02100198 0.011319381
0.013154898 0.015300547 -0.022620995 -0.022916865 -0.030494787 0.020361317 0.029569125 9.887307e-05
0.025424456 0.033959307 -0.010901411 -0.016402075 0.050107196 0.0060880263 0.00028946248 -0.025320439
0.0006542686 -0.009992865 -0.0142672425 0.023153566 -0.0090756975 -0.009094605 0.0041315127 -0.027373279
0.022925328 0.0032500834 0.005127379 -0.008385881 0.03657631 -0.0033095272 -0.009229577 -0.0010567717
-0.07917905 -0.010942479 0.0052728597 0.008662485 -0.026259685 0.02125115 -0.012764207 -0.008034626
-0.0645554 0.029325353 0.025481587 -0.013740223 -0.023883795 0.010546067 -0.005974417 -0.013212572
-0.031742886 -0.024345014 -0.009165103 -0.044132054 0.02155013 -0.014921619 0.018723102 -0.017823774
-0.03400517 0.018123727 0.05819915 -0.02082554 0.046727054 0.016793093 -0.036661018 -0.005580543
-0.0084883645 -0.02448452 0.030510383 0.009857062 -0.00150659 0.04764021 -0.006605995 -0.0037731815
0.05672682 -0.018505592 0.008016892 0.00284263 -0.005813708 -0.018642118 -0.007018414 -0.0029921439
-0.000490616 0.019695759 -0.04417636 -0.029768802 -0.021140529 0.025351694 -0.019094544 0.0044824444

features_to_image.1.bias f4 [64]
00000000: e300 603b e915 debd abd9 003c 074c 7d3d
00000010: 1114 833c 67ae cdbc 9f58 e9bd c88a 923d
00000020: 7d91 6a3d df59 5fbb 256c b6bd 9e10 bfbb
00000030: 14dc 76bd a6fd 0f3d b1db df3a 0b90 833a
00000040: e3f8 6fbd 28d2 11bd 31cd 733b f1e4 a4bd
00000050: 29c6 9d3c 7fab 85bd f6b0 a1bd 49bb 973c
00000060: 6ee2 a8bc ce72 a8bd a6bd 1a3c 56ce b2bb
00000070: 0354 43b9 7852 57bd 111f 74bd 875e 553c
00000080: c72e 95bc a873 edbc 383f ad3c 7adc 13be
00000090: ff1f 0e3c a78d 5b3c 8980 c9bc 0bd6 9abd
000000a0: 1121 76bd bd4a 1cbd 3912 7fbc bc99 0ebd
000000b0: b6ab 9b3b b00b cdbd a9a5 273d 2f7f b8bd
000000c0: f62a 8ebd fa7a e2bd 9739 013d d689 acbc
000000d0: 86dc 5cbd ee64 b6bd 79c7 7bbd 34c1 ec3c
000000e0: 30e9 1fbd 2d7b b7bd d572 c2bc 97cc 87bd
000000f0: 9f79 0d3d 3aa2 aabd 224f 99bd 0339 ddbd
0.0034180216 -0.10844023 0.007864396 0.061840083 0.01600078 -0.025107576 -0.11393856 0.07155377
0.057267655 -0.0034080667 -0.08907346 -0.0058308383 -0.060268477 0.035154007 0.0017079023 0.0010037435
-0.058586966 -0.03560081 0.003720116 -0.080514796 0.01925953 -0.06526851 -0.07895081 0.018521922
-0.020615783 -0.08225022 0.00944463 -0.005456726 -0.00018627946 -0.052568883 -0.05959994 0.013023025
-0.018210782 -0.028985813 0.02114831 -0.14439574 0.008674621 0.013400472 -0.024597423 -0.07560357
-0.06009013 -0.038157213 -0.015568309 -0.03481458 0.004750694 -0.10011995 0.04092947 -0.09008633
-0.06941788 -0.11058612 0.031549063 -0.021061819 -0.053921245 -0.089059696 -0.06146953 0.02890072
-0.039040744 -0.08959041 -0.023736397 -0.06630819 0.034539815 -0.083317235 -0.074857965 -0.1080189

features_to_image.3.weight f4 [64]
00000000: 0ce1 6e3f 82eb 893f a299 773f d17c 733f
00000010: e4f1 7c3f 7f57 803f d2b8 7f3f 7dcb 803f
00000020: f36b 763f f4ab 813f 82ac 833f 383d 813f
00000030: cd22 843f d1a0 7c3f 7edc 6d3f 2d4b 743f
00000040: 8ea1 843f 825d 813f ee67 793f 7cdc 873f
00000050: 10af 6c3f 5935 853f d4f6 683f 132c 803f
00000060: 183d 773f 36cd 893f 2e2a 753f 7c8b 733f
00000070: f5c0 853f a7ce 7b3f 4555 823f 1b5c 813f
00000080: e5f4 7b3f 09a1 843f 90c9 6d3f 2831 8d3f
00000090: 45bb 7b3f af54 743f 290c 713f d8e6 863f
000000a0: 92f5 803f b732 7d3f f2b4 823f 4b88 7b3f
000000b0: b88b 7b3f 99db 853f e5cf 753f 5dc0 843f
000000c0: 03bc 803f 29e4 8e3f ca5a 723f 6c91 7f3f
000000d0: ada9 7c3f 0de3 813f bcb8 8b3f ac8c 703f
000000e0: 9723 833f 70f4 723f cf5c 853f 6c64 7e3f
000000f0: 4317 683f 190c 883f 7523 823f 073c 833f
0.93312144 1.0774996 0.967188 0.9511233 0.98806596 1.0026702 0.9989139 1.00621
0.9625847 1.0130601 1.028702 1.0096807 1.032312 0.98682886 0.9291457 0.9542721
1.0361803 1.0106661 0.9742421 1.0614161 0.92454624 1.0406905 0.9100163 1.001345
0.96577597 1.076575 0.95767486 0.9513471 1.0449511 0.983622 1.0182272 1.0106233
0.98420554 1.0361644 0.92885685 1.1030626 0.98332626 0.95441717 0.9415918 1.0539198
1.0074942 0.9890551 1.021147 0.9825484 0.9826007 1.0457641 0.96020347 1.0371205
1.0057377 1.1163379 0.94669783 0.9983127 0.98696405 1.0147415 1.0915751 0.9396465
1.0245236 0.9490423 1.0418948 0.9937198 0.90660495 1.0628692 1.0167071 1.0252694

features_to_image.3.bias f4 [64]
00000000: ec20 f03c 2fc4 e53c 79a4 0abc 05b9 9ebc
00000010: 8d60 e13c 9548 1a3d 373b 54bd 5889 27bc
00000020: 6742 233b ccc6 85bc 4a2e 75bd 048d 563d
00000030: 9901 2cbc 167e 14bd 4cc6 fa3c cf0a cfbc
00000040: 6bfe 4d3d 765b 1d3d 4699 9dbd d6ec 10be
00000050: 8a3a 6cbc c92d 553d c10d 163d fd61 543c
00000060: c664 ef3c b791 e73c ef5b 24bd 1d86 c0bd
00000070: da37 563c afc9 7e3d 23c1 93bd e3ac 85bd
00000080: 9c6c 8a3d e9d6 c93c 2b03 8bbc 0742 06bd
00000090: 652d 5cbd 4187 31bd 98e5 5abd c679 dabd
000000a0: 9b80 223c d55f 3bbb 23b9 693c 42da 50bb
000000b0: a0e2 af3d 540f b43d 3736 613d f521 38bd
000000c0: 9446 16be 6508 7bbc b3f3 7e3d c055 843c
000000d0: 2ed0 d2bd 912f 813d cff6 66bc 3860 bbbc
000000e0: 491c 563d b9e9 5a3d c4bf 61bd 1c8f 6f3d
000000f0: 1b54 44bd a277 953d 9245 6fbc 587a b9bc
0.029312573 0.02804765 -0.008462065 -0.019375334 0.02751186 0.037666876 -0.051814284 -0.010225616
0.0024911405 -0.016330145 -0.059858598 0.052380577 -0.010498428 -0.036253057 0.030612133 -0.025273709
0.05029146 0.038417302 -0.0769525 -0.14152846 -0.014418254 0.052045617 0.03663421 0.012962815
0.029222857 0.028267724 -0.040126737 -0.0940058 0.0130748395 0.06220406 -0.07214572 -0.06527116
0.06758997 0.02463861 -0.016969284 -0.032777812 -0.05375423 -0.04334188 -0.053441614 -0.10667758
0.009918357 -0.0028591056 0.014265331 -0.0031868373 0.08588147 0.08791986 0.054983344 -0.04495426
-0.14675361 -0.015321826 0.06224413 0.01615417 -0.102936134 0.06307901 -0.01409693 -0.02287303
0.05227307 0.05344555 -0.055114523 0.05848609 -0.04793177 0.07298209 -0.014603989 -0.022641346

features_to_image.3.running_mean f4 [64]
00000000: 160d 1a3f 287c cd3e 17b7 f23e 0769 d53e
00000010: e17c d23e ce90 cb3e 1932 843e a6ae fe3e
00000020: a9de d03e f2ba 953e 9fcc a73e 20bd b03e
00000030: 1e12 8d3e d7cf 053f 96a5 de3e 70d0 e33e
00000040: 85de bb3e 0fc2 953e 97c8 d23e cb23 8f3e
00000050: b349 f83e a19c 743e fc24 f83d 2a98 e43e
00000060: 22c6 b53e a4cc 8c3e 2266 ad3e e832 a03e
00000070: 6f03 a33e 4e01 ba3e fed7 5d3e 8b86 ba3e
00000080: 6889 9f3e 3c1d ef3e 2cce d93e 2472 913e
00000090: ae1d 973e 898a bd3e 3b1b 913e 5c74 c63e
000000a0: 7ec5 d33e cd31 9d3e f0f1 ef3e a414 ab3e
000000b0: a854 9b3e 57b2 9a3e 5217 d73e 5419 9c3e
000000c0: f270 923e dccc ab3e 08ff b93e dbc9 c63e
000000d0: 086a ca3e 160e 913e e51e da3e befb e93e
000000e0: 938f a33e 912e 843e 293e c93e 101c b83e
000000f0: fb28 f03e 66dc b03e efaa 7e3e bb23 983e
0.6017622 0.40133786 0.4740531 0.41681692 0.411109 0.39758915 0.2581947 0.4974262
0.40794876 0.2924419 0.327733 0.3451929 0.27552885 0.52270263 0.43485707 0.44494963
0.36693206 0.29249617 0.41168663 0.27956995 0.48493728 0.23887874 0.12116429 0.44647342
0.35502726 0.27499878 0.33866984 0.31288838 0.31838557 0.3632912 0.21664426 0.36430773
0.3115952 0.46701992 0.4254011 0.28407395 0.2951483 0.37019756 0.28341088 0.3876065
0.41361612 0.30702057 0.4686427 0.33414185 0.30338025 0.30214188 0.4200998 0.30488074
0.28601795 0.33554733 0.36327386 0.38825879 0.3953402 0.2833106 0.42601696 0.45699877
0.31945476 0.25816777 0.39305237 0.3595891 0.46906266 0.3454315 0.24869893 0.2971476

features_to_image.3.running_var f4 [64]
00000000: 1128 7a3f 034e b93f 4d28 923f 1a67 023f
00000010: 774a b73f 7921 803f 72c2 853f 6721 a63f
00000020: 7266 073f a0a0 4a3f 4f7d 5f3f f6f2 4c3f
00000030: 0e25 133f 156d 713f 310d 5a3f 9300 4c3f
00000040: d610 9f3f 9172 273f 8ed3 443f a441 5b3f
00000050: 6741 6f3f 01fb 083f 0ced b93d 814b 8e3f
00000060: 2aae 553f e175 593f 6666 c53e c700 013f
00000070: 23c6 763f 975f 763f 0d55 c43e 3ffd 503f
00000080: d1e1 893f 270b c33f 2f00 7d3f 1d2e 723f
00000090: dce2 ab3e f33e 1c3f 19a6 ca3e d3e7 933f
000000a0: cef1 c33f 0431 123f 34f3 ae3f a85e 1e3f
000000b0: 4771 083f f1d9 8b3f fd9d 423f 24b6 8b3f
000000c0: a056 223f 6244 843f f3ef 2a3f 2fb3 413f
000000d0: e973 7e3f 23ca 2d3f 09b1 bb3f f7d2 373f
000000e0: 1d64 af3f 0f16 5c3f 343f 9b3f 7ac4 843f
000000f0: dd4b 313f 3539 8d3f 5ff4 9a3e 25f3 893f
0.97717386 1.4476932 1.1418549 0.5093857 1.43196 1.0010215 1.0449965 1.2978944
0.52890694 0.79151344 0.8730058 0.8005823 0.57478416 0.9430707 0.8517638 0.79688376
1.2427013 0.6540919 0.76885307 0.85647035 0.9345917 0.53508 0.09078416 1.1116792
0.8346888 0.84945494 0.38554686 0.5039181 0.9639608 0.9623961 0.3834614 0.8163642
1.0772039 1.5237778 0.98828405 0.94601613 0.33571517 0.6103355 0.39579847 1.1555122
1.5308168 0.5710604 1.366797 0.61863184 0.5329785 1.0925885 0.7602232 1.091496
0.6341343 1.0333369 0.66772383 0.7566404 0.99395615 0.6788656 1.4663402 0.7180628
1.3702427 0.8597116 1.2128663 1.037246 0.69256383 1.1033083 0.30264565 1.0777327

features_to_image.4.weight f4 [64, 32, 4, 4]
00000000: 8ab7 24bc a2b3 2dbc 4d4e 9d3c cc3b 1939
00000010: 147e a43c 5a1d 21bd e851 143d 8be2 163c
00000020: 2c34 bebc 7dad 07bd e99b 33bc 5e2e e4bb
00000030: 6309 49bd 9ca5 c13c a241 1dbc c659 b03c
00000040: 3409 b7bb 0717 a73c 2962 3abc a741 d23b
00000050: e2ac 00bb aac8 243d 7041 96bc 132b babc
00000060: d884 d8bb 4ec0 73bc 71dc 43bb dad9 52bd
00000070: 8525 07bd 48dc 87bb 93b9 72bc f9d3 aa3c
00000080: 99a2 c3bc e41c e43c 75c4 26bd 4fef bfbc
00000090: f0c6 f63c 1edc bf3c 551c 273a 5878 85bc
000000a0: 61a3 ab3c 4c5c aabb ba50 233d a255 ef3c
000000b0: d8d4 743d 0e6d 1f3d 223c 743c d646 263c
000000c0: cd33 28bd fce0 6ebd c661 bfbc 3521 dfbc
000000d0: 3ef2 10bd 6a4b d3bc 75fd bbbc 1945 0b3d
000000e0: 9d22 40bd af82 fdbc 1293 583c 122f 74bc
000000f0: 8330 2f3d 3d4a 4cbd 9a4e 8fbc 8ff9 0e3b
00000100: 88db d23c 74d0 d43c 9b51 18bb 8cd0 233c
00000110: 1c7e 54bd 861a 06bc c50a 7abd 4a21 72bd
00000120: 7585 1dbd 193d 06bd 239c 0ebd 60ea 30bd
00000130: 0c92 d73b e1bc 123c bdef 8dbc 8a7f f33c
00000140: 0c22 83bb 749f e0bc 631d 94bc 266a 013d
00000150: 8eb1 56bd c845 29bd 24ca 7dbd 1328 3d3d
00000160: 7cce 003d ed24 86bd 2d81 85bd 0a29 b2bc
00000170: 8ecc 39bd 49dd 29bd 03bb 123b 2a29 04bc
00000180: d542 abbc efcb a53b 0a2e 04bd 533b 6d3c
00000190: d123 dc3a bfc2 1dbc ff0f 00bd 4245 97bc
000001a0: 86e3 9f3c 4ed8 f7bc 37ea 9fbc a85d 26bc
000001b0: 876d f63b 66fd acbd 6113 1b3d 8af6 243d
000001c0: 0ce4 f0bc 10b7 28bd dbdf 2cbc 4443 443d
000001d0: 7e83 e738 c03c 30bc ff2a 85ba db41 283d
000001e0: a758 08ba 47e0 d1bc a47e 9c3c 1e6a fc3b
000001f0: e523 983c 84c9 3dbd e8b2 143d 68db c2bc
00000200: 5259 a2bd bc9e 8cbc 0933 2cbd df36 063d
00000210: 1f33 663b 00c6 f8bc b6e2 29bd 72c4 b03a
00000220: 9432 feba cad7 64bd 121a 0fbc 830e 3bbc
00000230: 5cf3 27bd 9ce3 e7bc 314a 313c e01a b63b
00000240: a5c2 f23c 423f a4bc 931d 293d e6d1 3e3b
00000250: 332d 95bc c650 2bbc 826f 5d3a 791d a33b
00000260: 4e25 64bc 89e0 70bd 3aa7 7b3d d168 c33b
00000270: 375c 3cbd 6d66 17bd a165 2ebd fe12 69bc
00000280: 29b8 4ebc 04e3 0ebc 63f5 263c b503 04bd
00000290: 289e 10bc 8ed0 823c 2ad1 993c f1ab 273d
000002a0: 8a50 c3bd 2035 65bc 1813 413b ba66 b93b
000002b0: bbdc ebbc 8567 07bd 0286 05bd ea8f 14bc
000002c0: 154a 1b3c 0115 11bd fce1 0ebc 7e2a 0dbd
000002d0: daff 763b 6d4f 1038 9e24 af3c 8d1f c0bc
000002e0: 5056 92bc 9495 a2bd 48f8 9d3b d58b 6fbd
000002f0: 81bd ae3b a0e9 ea3a 86a7 673d 2588 d43b
00000300: 77de 543c 9db6 83bb db66 12bc 57b8 8bbc
00000310: dd35 93bb 4004 6dbd c64d f3bc 7a6d 043c
00000320: 2d0a 89bd a60f 9dbd bbb2 5fbd 0529 a4bc
00000330: e7f8 7dbc 33d7 103c bd1d 40bc 9cff ae3c
00000340: ac95 1cbd 90a7 f43b 87c5 b73c 56c5 cbbb
00000350: 412f b8bb 97e2 71bd cb10 4cbd fcad 3b3c
00000360: ca09 67bd 1b13 03bd d159 84bd 8f2f 03bc
00000370: 7a5f 8d3c ad83 603c f935 613d 23c0 64bc
00000380: 55a4 6bbc af7e fcbc 3560 6e3c 4d8c d33c
00000390: 1a7f 55bc 60de 54bd 0538 293c 48c9 f13c
000003a0: ff2d 5bbc 2d85 c5bc b2ea 513d 2303 61bc
000003b0: 0389 99bd 8e0c 5cbd aaa8 76bc fd42 eb3c
000003c0: 6048 e63c 51c9 6fbc 21a0 3cbc 5c01 0bbd
000003d0: f0ae 173d 5f36 b43c b4ac cdbb 13dd afbb
000003e0: 2e72 f33c 8af9 663b 8405 81bc d2b3 7dbc
000003f0: 9fbd 65bc 1186 793b a302 9c3b 8888 bdbb
-0.010053525 -0.01060191 0.019202376 0.00014613493 0.02007965 -0.039334632 0.036210924 0.0092092855
-0.023218237 -0.033124436 -0.010962465 -0.006963535 -0.049081217 0.023638539 -0.009598168 0.021527182
-0.005585814 0.020396722 -0.011375942 0.006416518 -0.0019634296 0.04023043 -0.01834175 -0.022725618
-0.006607633 -0.014877392 -0.0029886032 -0.05147729 -0.032994766 -0.0041461326 -0.014814752 0.02085303
-0.023881244 0.027845807 -0.0407147 -0.02342954 0.030124158 0.02342039 0.0006374766 -0.016292736
0.020951929 -0.005198991 0.03987191 0.029215638 0.059773296 0.038922362 0.014906915 0.010148725
-0.041065026 -0.05832003 -0.023362052 -0.027237514 -0.03538727 -0.025792796 -0.022948006 0.034001444
-0.04690801 -0.030946104 0.013218658 -0.014903801 0.042770874 -0.049875487 -0.017493535 0.002181623
0.025739446 0.025978304 -0.0023242 0.009998452 -0.05187808 -0.008185035 -0.061045427 -0.05911378
-0.038457353 -0.03277311 -0.034816872 -0.043192267 0.0065786894 0.008956165 -0.01732623 0.029723901
-0.0040018614 -0.027419783 -0.018080419 0.03159537 -0.052415423 -0.041326314 -0.061960354 0.046180796
0.03144692 -0.06550012 -0.06518779 -0.021748085 -0.045361094 -0.0414708 0.00223893 -0.008066455
-0.020905891 0.005059711 -0.03227047 0.014479476 0.0016795342 -0.009628951 -0.031265255 -0.018465642
0.019517671 -0.03025451 -0.019520862 -0.010154165 0.007520381 -0.084467694 0.037860278 0.04027418
-0.029405616 -0.041190207 -0.010551418 0.047915712 0.00011039431 -0.010756671 -0.0010159909 0.04107843
-0.00052011985 -0.02561964 0.019103356 0.00770308 0.018571803 -0.04633476 0.03630343 -0.023786262
-0.07927193 -0.017165534 -0.04204086 0.032767173 0.0035125685 -0.030367851 -0.041475974 0.001348628
-0.0019393736 -0.055869855 -0.008734243 -0.011417034 -0.04100357 -0.028306775 0.010820911 0.005557403
0.02963383 -0.020049695 0.04128797 0.0029116808 -0.01821003 -0.01045627 0.0008447097 0.0049778786
-0.01392491 -0.058807883 0.061438777 0.005963423 -0.04598638 -0.036962915 -0.04257739 -0.0142257195
-0.012617149 -0.008721117 0.010190341 -0.032230098 -0.00882677 0.015968587 0.018776495 0.04093546
-0.09536846 -0.013989717 0.0029460844 0.005657998 -0.028791776 -0.03305771 -0.032598503 -0.009067515
0.009478112 -0.03542042 -0.008720871 -0.03446435 0.003768912 3.4406246e-05 0.021379765 -0.023452545
-0.017863423 -0.07938686 0.004820857 -0.058482964 0.005332649 0.0017922409 0.056556247 0.0064859563
0.012992493 -0.004019572 -0.0089356555 -0.017055674 -0.004492505 -0.05786538 -0.029700171 0.008082742
-0.06691394 -0.07669 -0.05461381 -0.02003909 -0.0155012375 0.00884037 -0.01172584 0.021362118
-0.038228676 0.007466264 0.022433056 -0.0062185926 -0.0056208675 -0.059053984 -0.049820703 0.011455055
-0.05640582 -0.032000642 -0.064624436 -0.008006944 0.01725744 0.013703269 0.054983113 -0.013961825
-0.0143824415 -0.030822126 0.014549305 0.025823737 -0.013030792 -0.051969886 0.0103282975 0.029514924
-0.013377666 -0.024111355 0.051249214 -0.013733658 -0.07496836 -0.05372291 -0.015054861 0.028718466
0.028110683 -0.0146354 -0.011512787 -0.033936843 0.037032068 0.021998582 -0.0062766913 -0.0053669303
0.029717531 0.0035243952 -0.0157497 -0.015484767 -0.01402226 0.0038074295 0.0047610565 -0.005784098

features_to_image.4.bias f4 [32]
00000000: 7745 e83c 7937 2dbd dcc9 9f3d b872 c0bd
00000010: e11b 233d 9e23 303d bed7 40bd 503a 98bd
00000020: 3ed2 82bc 1a52 a7bc 14d8 533c dafc 593d
00000030: 94b2 52bd 77a4 74bc 9193 b9bd fc3a bdbb
00000040: 0119 01bd b9aa 8cbd 1791 903d 8e9d cd3d
00000050: 4cae 7fbd 413f 47bd 9068 163d 76bd 24bd
00000060: 3b36 903d bc67 f13c 9e83 4dbd e334 ecbd
00000070: cf87 a2bd 95a0 bebc d9b2 8ebd 635a 3a3d
0.028353436 -0.04228923 0.078021735 -0.09396881 0.03982151 0.043002717 -0.047080748 -0.07432997
-0.015969392 -0.020424891 0.012929935 0.053219654 -0.051439837 -0.01493179 -0.09061349 -0.0057748538
-0.031517986 -0.068685 0.07058924 0.10039817 -0.06242208 -0.048644308 0.036720812 -0.040219747
0.07041594 0.02946841 -0.050174348 -0.11533525 -0.0793606 -0.02326993 -0.06967706 0.045496356

features_to_image.6.weight f4 [32]
00000000: 07a1 7e3f d534 813f 62d8 6b3f 21d8 7b3f
00000010: 7a4f 7c3f c55d 7b3f 4d25 7a3f 2efe 833f
00000020: 5ce2 7e3f f064 773f 5941 7b3f e79c 763f
00000030: 9515 793f 6dc7 813f 4fb8 753f e94b 7c3f
00000040: 4283 813f 78b8 7c3f 88a4 733f aa7c 693f
00000050: ce6a 813f 2101 763f 0aa9 7b3f a648 7c3f
00000060: b599 6c3f e7e0 823f 8f7b 7e3f 9716 753f
00000070: a52c 753f 5c94 5a3f 45a1 7d3f e9d0 6d3f
0.9946446 1.0094248 0.9212705 0.9837666 0.9855877 0.98189956 0.97713166 1.0311944
0.99564147 0.96638393 0.9814659 0.96333164 0.97298557 1.0138985 0.9598436 0.9855333
1.0118182 0.98718977 0.9517293 0.9120585 1.0110719 0.9609547 0.9830481 0.9854835
0.9242204 1.0224885 0.99407285 0.95737594 0.9577125 0.8538263 0.990742 0.92896897

features_to_image.6.bias f4 [32]
00000000: 4e2e 98bd 139f 04be 67a1 013e 845e 263e
00000010: 62d6 483d 1f0b abbd e11d ddbc ec24 1f3e
00000020: 9084 63bd 92d0 ae3d af70 573d 6061 093e
00000030: 874e cebd 413f 873e 4459 e43d 9843 b0bd
00000040: 6db1 1c3e dfbc 2c3e baf1 c53b a1bf 1b3e
00000050: 726a 0d3e 9df3 1c3c f3d7 8bbd 5c2b 14bc
00000060: 4cf2 073e 575f 7c3c 9645 9b3d b801 893e
00000070: 2fdb f93d f9c8 d8bc de0f b23d e698 ecbb
-0.07430707 -0.12951307 0.12659226 0.16246992 0.049032576 -0.083517306 -0.026991786 0.15541428
-0.055546343 0.085358754 0.052597698 0.13416052 -0.10073572 0.26415446 0.111498386 -0.086066425
0.15302058 0.16868924 0.006040779 0.1520982 0.13810137 0.009579566 -0.068282984 -0.009043541
0.13276023 0.01540359 0.07581632 0.26759124 0.12200009 -0.026463019 0.08694433 -0.0072203754

features_to_image.6.running_mean f4 [32]
00000000: beb2 ae3e 86af b43e 09d8 893e f1db 143e
00000010: b551 823e b508 c33e e01e 703e a03d 173e
00000020: 19c0 893e ebcd 8f3e 3283 a73e bf6f b93e
00000030: ddb5 ca3e 3037 b33e 7257 543e de8f 9a3e
00000040: c735 c13e 5329 733e 90d9 ab3e 3c16 a13e
00000050: 150f 0c3e 5fc3 963e b495 713e 5c2c 8c3e
00000060: 406b b33e 7260 963e f886 8d3e 603e 133e
00000070: ab25 083e 0db6 713e 91a0 7b3e 5cd1 a03e
0.34120744 0.35290164 0.26922634 0.14537026 0.25452963 0.3809258 0.23449278 0.14769602
0.2690437 0.2808679 0.32717282 0.36218068 0.39591876 0.35003042 0.20736483 0.30187887
0.3773634 0.23746233 0.33564425 0.31462276 0.13677628 0.2944593 0.23592263 0.27377594
0.35042763 0.29370457 0.27642035 0.14379263 0.13295619 0.23604603 0.2457297 0.3140973

features_to_image.6.running_var f4 [32]
00000000: a1d6 803f 9fd1 8d3f 3b3f 353e a8cb 603e
00000010: 675b a03e ee15 ba3f 7150 443f 23c2 213e
00000020: f3f0 1a3f a7fc 693f 6207 963f 3690 983f
00000030: 8f9e fc3f f936 883f 74e9 ce3e e142 543f
00000040: f6ee ac3f 04dd 383f 8a92 283f 165a 9d3e
00000050: eac5 393e 6213 983f 2ef9 a03e 5856 163f
00000060: 2474 3d3f 47d0 483f 3c94 423f e46d 8c3e
00000070: bfea 2d3e cc53 673e 6d3f 0b3f 9c6d 9b3f
1.00655 1.1079596 0.17699902 0.21952689 0.31319734 1.4537942 0.76685244 0.15796714
0.6052391 0.9140114 1.1721003 1.191901 1.9735888 1.0641776 0.40412486 0.8291455
1.3510425 0.72212243 0.658486 0.30732793 0.18141904 1.1880915 0.3144011 0.587255
0.7400534 0.78442806 0.7600744 0.2742759 0.1698408 0.2259056 0.54393655 1.2142825
